…
2020-04-13 16:47:45 - num_epochs 100
2020-04-13 16:47:45 - ngpu 4
2020-04-13 16:47:45 - num_workers 4
2020-04-13 16:47:45 - lr 0.0002
2020-04-13 16:47:45 - uaph_path ./data/ctu/uaph.csv
2020-04-13 16:47:45 - data_path ./data/ctu/ctu_csv/
2020-04-13 16:47:45 - uaph_threshold 7.05
2020-04-13 16:47:45 - ================
2020-04-13 16:47:45 - dir_path: ./log/200413_164745_simple_model
2020-04-13 16:47:45 - seed: 999
2020-04-13 16:47:45 - train_size:441, val_size:111
2020-04-13 16:47:51 - Net(
  (seq): Sequential(
    (0): MaxPool1d(kernel_size=4, stride=4, padding=0, dilation=1, ceil_mode=False)
    (1): Conv1d(1, 10, kernel_size=(15,), stride=(1,), padding=(7,))
    (2): BatchNorm1d(10, eps=1e-05, momentum=0.1, affine=True, track_running_stats=True)
    (3): ReLU()
    (4): Conv1d(10, 10, kernel_size=(15,), stride=(1,), padding=(7,))
    (5): BatchNorm1d(10, eps=1e-05, momentum=0.1, affine=True, track_running_stats=True)
    (6): ReLU()
    (7): MaxPool1d(kernel_size=2, stride=2, padding=0, dilation=1, ceil_mode=False)
    (8): Conv1d(10, 20, kernel_size=(15,), stride=(1,), padding=(7,))
    (9): BatchNorm1d(20, eps=1e-05, momentum=0.1, affine=True, track_running_stats=True)
    (10): ReLU()
    (11): MaxPool1d(kernel_size=2, stride=2, padding=0, dilation=1, ceil_mode=False)
    (12): Conv1d(20, 40, kernel_size=(15,), stride=(1,), padding=(7,))
    (13): BatchNorm1d(40, eps=1e-05, momentum=0.1, affine=True, track_running_stats=True)
    (14): ReLU()
    (15): MaxPool1d(kernel_size=2, stride=2, padding=0, dilation=1, ceil_mode=False)
    (16): Flatten()
    (17): Linear(in_features=18000, out_features=60, bias=True)
    (18): Linear(in_features=60, out_features=2, bias=True)
    (19): Softmax(dim=None)
  )
)
2020-04-13 16:47:52 - epoch: 1, phase: val, loss: 3.5260
2020-04-13 16:47:52 - [tp: 0 fn: 8] [fp: 0 tn: 103]
2020-04-13 16:47:52 - tpr: 0.000, tnr: 1.000
2020-04-13 16:47:52 - acc: 0.928, prec: -1.000, f1: 0.000
2020-04-13 16:47:53 - epoch: 2, phase: train, loss: 2.8937
2020-04-13 16:47:53 - [tp: 2 fn: 30] [fp: 25 tn: 384]
…
